Feras_formidáveis/checkpoint.pt (torch, 2726 bytes, 5 tensors)

camadas.0.weight f4 [3, 1]
0	0xbef3f4b7	-0.4764764
1	0xbf0473a6	-0.51738966
2	0xbf352dcd	-0.7077301

camadas.0.bias f4 [3]
0	0x3ca8d590	0.020609647
1	0x3ea757de	0.32684225
2	0x3ff48071	1.9101697

camadas.2.weight f4 [2, 3]
0	0xbf7cecc0	-0.9879875
1	0xbfba218e	-1.454149
2	0xc00a924c	-2.1651793
3	0xbf48f095	-0.784921
4	0xbebd6659	-0.36992148
5	0xbfc7fd19	-1.5624114

camadas.2.bias f4 [2]
0	0x3f17a5f8	0.59237623
1	0x3ea8cdb5	0.32969442

camadas.4.weight f4 [1, 2]
0	0x403b3e55	2.9256794
1	0x3fb1aaaf	1.3880213
