Feras_formidáveis/checkpoint.pt (torch, 2726 bytes, 5 tensors)

camadas.0.weight f4 [3, 1]
0	0x3f1f2dd2	0.6217929
1	0x3ee878fd	0.45404807
2	0x3ecb4592	0.39701515

camadas.0.bias f4 [3]
0	0xc01eb4a6	-2.479776
1	0xbfc11e0b	-1.5087293
2	0x3ed0ec05	0.4080507

camadas.2.weight f4 [2, 3]
0	0x4015af43	2.3388221
1	0x3fc48a7c	1.5354762
2	0xbe9ca72a	-0.30596286
3	0xbf40b794	-0.7528012
4	0xbf1c3a6b	-0.6102664
5	0xbeb44463	-0.35208425

camadas.2.bias f4 [2]
0	0xbfe5c9d9	-1.7952224
1	0x3f1f5a87	0.6224751

camadas.4.weight f4 [1, 2]
0	0x405df48d	3.4680512
1	0xbf9cc586	-1.2247779
